…
e))dogcat.py:86: UserWarning: Update your `Conv2D` call to the Keras 2 API: `Conv2D(32, kernel_size=(3, 3), padding="same")`  model.add(Conv2D(32, kernel_size=(3, 3), border_mode='same'))dogcat.py:90: UserWarning: Update your `Conv2D` call to the Keras 2 API: `Conv2D(64, kernel_size=(3, 3), padding="same")`  model.add(Conv2D(64, kernel_size=(3, 3), border_mode='same'))_________________________________________________________________Layer (type)                 Output Shape              Param #=================================================================conv2d_1 (Conv2D)            (None, 150, 150, 32)      896_________________________________________________________________activation_1 (Activation)    (None, 150, 150, 32)      0_________________________________________________________________max_pooling2d_1 (MaxPooling2 (None, 75, 75, 32)        0_________________________________________________________________conv2d_2 (Conv2D)            (None, 75, 75, 32)        9248_________________________________________________________________activation_2 (Activation)    (None, 75, 75, 32)        0_________________________________________________________________max_pooling2d_2 (MaxPooling2 (None, 37, 37, 32)        0_________________________________________________________________conv2d_3 (Conv2D)            (None, 37, 37, 64)        18496_________________________________________________________________activation_3 (Activation)    (None, 37, 37, 64)        0_________________________________________________________________max_pooling2d_3 (MaxPooling2 (None, 18, 18, 64)        0_________________________________________________________________flatten_1 (Flatten)          (None, 20736)             0_________________________________________________________________dense_1 (Dense)              (None, 64)                1327168_________________________________________________________________activation_4 (Activation)    (None, 64)                0_________________________________________________________________dropout_1 (Dropout)          (None, 64)                0_________________________________________________________________dense_2 (Dense)              (None, 1)                 65_________________________________________________________________activation_5 (Activation)    (None, 1)                 0=================================================================Total params: 1,355,873Trainable params: 1,355,873Non-trainable params: 0_________________________________________________________________Train on 2000 samples, validate on 1600 samplesEpoch 1/100W tensorflow/core/platform/cpu_feature_guard.cc:45] The TensorFlow library wasn't compiled to use SSE4.1 instructions, but these ar
…
